Limu/5Lenet/save_model/best_model.pth (torch, 249927 bytes, 10 tensors)

model.0.weight f4 [6, 1, 5, 5]
0	0xbced95c8	-0.029002085
1	0x3f6767df	0.9039287
2	0x3f997d4b	1.1991361
3	0x3fb80c8e	1.4378831
4	0x3f4348ee	0.76283157
5	0xbd38ceb7	-0.045119014
6	0x3f9fe646	1.2492149
7	0x3fb53e8a	1.415971
8	0x3fb2d3e8	1.3970919
9	0x3eca008c	0.39453542
10	0x3dbc45bd	0.09192989
11	0x3f541e6b	0.82858914
12	0x3f2e6781	0.68126684
13	0x3d6d62de	0.057955615
14	0xbf0d4554	-0.5518391
15	0xbf269dba	-0.6508442
16	0xbea6e65f	-0.32597634
17	0xbea43f64	-0.32079613
18	0xbf31d61b	-0.69467324
19	0xbf882235	-1.0635439
20	0xbfa4f01c	-1.2885776
21	0xbf7e53fe	-0.9934691
22	0xbf9d8db0	-1.2308865
23	0xbf4df3f5	-0.80450374
24	0xbf84ef89	-1.03856
25	0xbde0171c	-0.10941908
26	0x3decaa08	0.115558684
27	0x3eadbafa	0.33931714
28	0x3eb881be	0.36036485
29	0x3d558435	0.052128036
30	0xbf0ee648	-0.5582013
31	0xbf401597	-0.75032943
32	0xbf52132c	-0.82060504
33	0xbf48478e	-0.78234184
34	0xbf4355f3	-0.76303023
35	0xbf594708	-0.8487401
36	0xbf50a4c0	-0.8150139
37	0xbf576b70	-0.8414831
38	0xbf704bf2	-0.93865883
39	0xbf9c805d	-1.2226673
40	0xbf437c1a	-0.7636124
41	0xbf8fb31a	-1.1226532
42	0xbf744b1c	-0.9542711
43	0xbf66cc4c	-0.9015548
44	0xbeb0ad0b	-0.3450702
45	0xbde095ff	-0.109661095
46	0xbf1389be	-0.5763205
47	0xbdc460da	-0.095887855
48	0x3e6ab8c9	0.22922052
49	0x3f5e6fb3	0.8688919
50	0xbe160fe7	-0.14654504
51	0x3f06c6a2	0.5264684
52	0x3f0b91cb	0.5451934
53	0x3f42b075	0.760505
54	0x3f11342e	0.56720245
55	0x3eb428fc	0.3518752
56	0x3f6fb609	0.9363714
57	0x3fc7c71f	1.5607642
58	0x3f9fcad3	1.2483772
59	0x3f4748d7	0.7784552
60	0xbda808a0	-0.0820477
61	0x3f7ac4ac	0.9795635
62	0x3f86ad72	1.0521681
63	0x3f317b21	0.69328505
64	0xbe0f7257	-0.14008461
65	0xbf180b6c	-0.5939243
66	0x3cd16cd5	0.02556459
67	0xbdb5e4ca	-0.08881529
68	0xbe1d7ce8	-0.15379679
69	0xbf68804b	-0.9082076
70	0xbf22a34c	-0.6353042
71	0xbefaec31	-0.49008325
72	0xbf1d9820	-0.6156025
73	0xbf6cff38	-0.9257693
74	0xbf80e58d	-1.0070053
75	0xbf657d88	-0.8964467
76	0x3c10b480	0.008832097
77	0x3f18c68e	0.5967797
78	0x3f5b59e2	0.85684025
79	0x3ef09de8	0.46995473
80	0xbe92beac	-0.28661096
81	0x3f6d902e	0.92798126
82	0x3fa6cb6c	1.303083
83	0x3f96e018	1.1787138
84	0x3f415943	0.7552683
85	0x3d67c4f8	0.05658433
86	0x3f5c2f1b	0.8600938
87	0x3fb59ee5	1.4189116
88	0x3f6ca98c	0.9244621
89	0x3e54cce0	0.20781279
90	0xbef9f979	-0.48823145
91	0xbc58e3d0	-0.0132379085
92	0x3e67cb04	0.22636038
93	0xbe8293c7	-0.2550337
94	0xbf1c52d9	-0.61063915
95	0xbfa08f4b	-1.254373
96	0xbf7aae4a	-0.97922194
97	0xbf90a9e7	-1.130185
98	0xbf684a16	-0.90738046
99	0xbf3d1d59	-0.73872906
100	0xbf73e090	-0.9526453
101	0xbe81973a	-0.2531069
102	0xbbc47f5b	-0.0059966273
103	0x3ee5df05	0.44896713
104	0xbe362ff2	-0.17791727
105	0x3ded31a6	0.11581735
106	0x3f6b492f	0.91908544
107	0x3f972a51	1.1809789
108	0x3fab3d0d	1.3378006
109	0x3f3a7727	0.7283806
110	0xbe383213	-0.17987852
111	0x3f83f831	1.0310117
112	0x3fc46129	1.5342151
113	0x3f9ddef6	1.2333667
114	0x3f1ce701	0.61289984
115	0xbef8ae42	-0.48570448
116	0x3f145be6	0.57952726
117	0x3f5f05c7	0.8711819
118	0x3edd1574	0.4318043
119	0xbebc8087	-0.3681681
120	0xbf5f9a93	-0.87345237
121	0x3dc5dd90	0.096614
122	0xbe400bc5	-0.1875449
123	0xbecffdc0	-0.40623283
124	0xbf8f69ab	-1.1204122
125	0xbf7e0e03	-0.9924013
126	0xbf2af0da	-0.6677376
127	0xbedc2c17	-0.43002388
128	0xbea8db6d	-0.3297991
129	0xbf11d68f	-0.56968015
130	0xbe542d38	-0.20720375
131	0x3f240f3d	0.6408575
132	0x3f2ddfa1	0.67919356
133	0x3f563eb2	0.83689415
134	0x3e4fdc32	0.20298842
135	0x3de5a447	0.11212974
136	0x3f61c7d5	0.88195544
137	0x3fb61e8f	1.4228076
138	0x3fa1b0dc	1.2632098
139	0x3f1747f7	0.59094185
140	0xbf18f477	-0.59748024
141	0x3e35f5a8	0.17769492
142	0x3f641bc0	0.89104843
143	0x3f0974bc	0.5369375
144	0x3df953fc	0.12174222
145	0xbf4ebd32	-0.8075744
146	0xbe16ba80	-0.14719582
147	0xbd89f145	-0.06735472
148	0xbe247b94	-0.16062766
149	0xbf2a7ca0	-0.6659641

model.0.bias f4 [6]
0	0xbf1a0869	-0.6016908
1	0x3e78aa9a	0.2428383
2	0xbf60fd6e	-0.87886703
3	0xbf9c1b60	-1.2195854
4	0xbfb18c65	-1.387097
5	0xbfb4529b	-1.4087709

model.3.weight f4 [16, 6, 5, 5]
0	0xbdeeffa6	-0.11669855
1	0x3df21bed	0.11821733
2	0x3dc262cd	0.09491501
3	0x3d39c172	0.0453505
4	0xbdbce7b6	-0.09223883
5	0xbe33e04b	-0.1756603
6	0xbe263f6c	-0.16235131
7	0xbde34e9c	-0.11098978
8	0xbe0fe5c9	-0.140525
9	0xbdaf751d	-0.085672595
10	0xbc2b5bd2	-0.010458903
11	0xbdbcabe2	-0.092124715
12	0xbe95918d	-0.2921261
13	0xbe75853a	-0.23976603
14	0xbe21ca72	-0.15799883
15	0xbde114cb	-0.10990294
16	0xbdc1761c	-0.09446356
17	0xbea597e0	-0.32342434
18	0xbe67febb	-0.22655766
19	0xbde8ced9	-0.11367578
20	0x3e069570	0.13142943
21	0x3e12e85e	0.14346454
22	0xbe3b6c10	-0.18302941
23	0xbe815ebb	-0.25267586
24	0xbe29ae56	-0.1657041
25	0xbd44ed73	-0.04807801
26	0xbc9e9629	-0.019358711
27	0xbdd12811	-0.1021272
28	0xbdd38143	-0.10327389
29	0x3c81d2f6	0.015847664
30	0xbdb42964	-0.08796957
31	0xbba82684	-0.0051315445
32	0xbd88d719	-0.066816516
33	0xbccb69ef	-0.024830787
34	0xbd74fe67	-0.05981293
35	0xbd237c35	-0.039913375
36	0xbe09a06b	-0.13440101
37	0x3d7026d7	0.05863079
38	0x3e0d56e9	0.13802685
39	0xbd0825bc	-0.03323911
40	0xbe42f777	-0.19039713
41	0xbd356c80	-0.044292927
42	0x3b84355a	0.0040346803
43	0x3be19c9c	0.0068851244
44	0x393c442a	0.0001795447
45	0xbe1f8388	-0.15577519
46	0xbe8dee1f	-0.27720734
47	0xbdf86eb5	-0.12130491
48	0x3be981e3	0.0071260794
49	0xbdc16172	-0.09442414
50	0xbd2b62ce	-0.041842274
51	0x3d5af8cd	0.05345993
52	0xbd73d6f0	-0.059531152
53	0xbd8d5f1b	-0.069029056
54	0xbe12d6d2	-0.1433976
55	0xbe1ee75a	-0.15517941
56	0xbdc2403c	-0.09484908
57	0xbcee1a2b	-0.029065212
58	0xbe0b8c2c	-0.1362769
59	0xbe179a3b	-0.14804928
60	0xbdbd9254	-0.092564255
61	0xbe36acc3	-0.17839341
62	0xbe072adb	-0.13199942
63	0xbe73415f	-0.23755406
64	0xbd6d985c	-0.05800663
65	0x3d209d19	0.03921232
66	0xbc52e019	-0.012870812
67	0xbe387e28	-0.18016875
68	0xbe8c71ca	-0.27430564
69	0xbe2bbbcb	-0.16770856
70	0x3e1c16ac	0.15243024
71	0x3d5d5728	0.054038197
72	0xbdc1bec5	-0.094602145
73	0xbe560152	-0.20898941
74	0x3c928345	0.01788486
75	0xbc223687	-0.009900696
76	0xbd03bc8e	-0.03216224
77	0x3c3db271	0.011578188
78	0xbb0c55c6	-0.002141343
79	0xbc99695b	-0.018726995
80	0xbdafa480	-0.08576298
81	0xbdef66f0	-0.11689556
82	0xbe03c874	-0.12869436
83	0xbe2a9a6b	-0.16660468
84	0xbe4128c0	-0.18863201
85	0x3c10e7a3	0.008844289
86	0xbe3d38a6	-0.18478641
87	0xbe57ec34	-0.21086198
88	0xbe985ddf	-0.29759118
89	0xbe203606	-0.15645608
90	0xbc2f27ff	-0.010690688
91	0xbda28d45	-0.07937101
92	0xbe9f9fd1	-0.31176618
93	0xbea671d1	-0.3250871
94	0xbe0250de	-0.12726161
95	0x3e5dd68f	0.21663879
96	0x3e4a39f7	0.19748674
97	0xbd04d6b6	-0.032431327
98	0xbdee9841	-0.11650134
99	0xbdbc6852	-0.09199585
100	0xbe12f7dd	-0.14352365
101	0x3bf6d60a	0.0075328397
102	0x3c131b04	0.008978609
103	0xbe0797eb	-0.13241546
104	0xbdd79751	-0.10526908
105	0xbe02d51f	-0.12776612
106	0xbcfcaef0	-0.030845135
107	0xbdd1a6df	-0.10236906
108	0xbe54ab88	-0.20768559
109	0xbe231378	-0.15925395
110	0xbb74bc9b	-0.0037343863
111	0xbd8d4b7e	-0.068991646
112	0xbe0de57c	-0.13857073
113	0xbe62df93	-0.221556
114	0xbdf8dbc7	-0.12151294
115	0x3df3c438	0.1190266
116	0x3db9ce23	0.090725206
117	0xbe3f64e3	-0.18690829
118	0xbe30f99b	-0.17282717
119	0xbca4aa0b	-0.020100614
120	0x3e3dc7e3	0.18533282
121	0x3e66c2f7	0.2253531
122	0x3d4a06dc	0.049322948
123	0xbe156232	-0.1458824
124	0xbda135ca	-0.078715876
125	0xbd8ab37c	-0.06772515
126	0xbdd0abaf	-0.10188996
127	0xbd961614	-0.0732843
128	0xbca56d75	-0.020193795
129	0xbdd171da	-0.102267936
130	0xbd54fd06	-0.051999114
131	0xbdf8f127	-0.12155371
132	0xbdb23c29	-0.08702881
133	0xbe3d1374	-0.18464452
134	0xbdf040d6	-0.117311165
135	0x3dd98f71	0.106230624
136	0x3d058fde	0.032607906
137	0xbe2bab62	-0.16764596
138	0xbe505e14	-0.20348388
139	0xbdac367d	-0.0840883
140	0x3d80b123	0.06283786
141	0x3d8f58a2	0.06999327
142	0xbdb4f351	-0.088354714
143	0xbe3aec5c	-0.18254226
144	0xbe179ec9	-0.14806665
145	0x3e88c1c7	0.2671034
146	0x3e2dae9e	0.16961142
147	0x3d214f67	0.039382365
148	0xbc86fb9f	-0.016477404
149	0xbc0379ff	-0.008024692
150	0x3f20acec	0.6276386
151	0x3f121bce	0.57073677
152	0x3ecd36eb	0.40080962
153	0x3e242302	0.1602898
154	0x3b412a3c	0.0029474637
155	0x3da8fbce	0.08251153
156	0xbe8d3cb6	-0.2758538
157	0xbda1c30a	-0.07898529
158	0xbbb55567	-0.0055338624
159	0xbdd3b69d	-0.10337565
160	0x3e4e23eb	0.20130889
161	0xbf0f7a38	-0.56045866
162	0xbf2b23c3	-0.66851443
163	0xbe6d87d2	-0.23196343
164	0xbdb140eb	-0.0865496
165	0x3ebb8c9a	0.36630708
166	0xbe5acc72	-0.21367052
167	0xbf348a68	-0.7052369
168	0xbec3a6f3	-0.3821331
169	0xbe7f62ac	-0.24939984
170	0x3e0ead97	0.13933407
171	0xbd5c69b1	-0.053811733
172	0xbf22177b	-0.6331708
173	0xbf0ec9ae	-0.5577649
174	0xbee0a271	-0.43873933
175	0xbcaa869c	-0.02081614
176	0x3e8280ec	0.25488985
177	0xbc3cb72c	-0.011518281
178	0xbe2ca041	-0.16858007
179	0xbdd0a6bd	-0.10188053
180	0xbe147e36	-0.1450127
181	0x3e603e56	0.2189878
182	0x3ed3d878	0.4137609
183	0x3d98f78c	0.07469091
184	0xbdc1f6cb	-0.094709
185	0xbecc37b9	-0.39886263
186	0xbd8207f3	-0.063491724
187	0x3ea6c8b1	0.3257499
188	0x3e9de789	0.3084071
189	0x3d7ad8b5	0.061241824
190	0xbead7da0	-0.33884907
191	0xbdb3327a	-0.08749862
192	0x3e8ee6b3	0.27910385
193	0x3ec9f922	0.39447886
194	0x3dfc7b08	0.12328154
195	0xbe19bffe	-0.15014645
196	0xbe8b024e	-0.27150196
197	0x3da2749e	0.07932399
198	0x3ea93f03	0.33055887
199	0x3e793cf0	0.24339652
200	0x3e58d03b	0.21173184
201	0x3e696456	0.22792181
202	0x3e9495bc	0.29020488
203	0x3e2f2496	0.171038
204	0xbbbc57cc	-0.005747771
205	0xbe2a904d	-0.16656609
206	0xbee612a3	-0.44936094
207	0xbe83011f	-0.25586793
208	0xbdba86a9	-0.09107716
209	0xbbb1d2a8	-0.0054267235
210	0x3e9d994e	0.30781025
211	0xbee6ac28	-0.4505322
212	0xbf0721f1	-0.52786165
213	0xbe4f7728	-0.20260298
214	0xbe115aec	-0.1419484
215	0x3e796178	0.24353588
216	0xbd80e3eb	-0.06293472
217	0xbf21e470	-0.6323919
218	0xbee4e10b	-0.44702944
219	0xbe88d062	-0.26721483
220	0x3e414674	0.18874532
221	0x3d5193ac	0.05116622
222	0xbeb5f518	-0.35538554
223	0xbf0ad091	-0.542245
224	0xbeb41b40	-0.3517704
225	0x3f079797	0.5296568
226	0x3e8122f5	0.25221983
227	0x3e337923	0.17526679
228	0x3dd5b26b	0.10434421
229	0xbd172a62	-0.036905654
230	0x3d934315	0.07190529
231	0xbeb86708	-0.36016107
232	0xbea9bdaf	-0.3315253
233	0xbe24775f	-0.16061161
234	0xbe2f8577	-0.17140757
235	0x3e8075ec	0.25089967
236	0xbed9d6e8	-0.42546773
237	0xbf17edf5	-0.5934747
238	0xbe5e47c3	-0.21707062
239	0xbe58b152	-0.21161392
240	0x3ec8eb15	0.39241853
241	0xbe9cc584	-0.30619442
242	0xbf49eccd	-0.78876954
243	0xbeb4f1cf	-0.35340735
244	0xbeb17d3e	-0.34665865
245	0x3e341329	0.17585434
246	0xbc837adc	-0.016049795
247	0xbee52ad0	-0.44759226
248	0xbecd168f	-0.40056273
249	0xbeb9f20e	-0.36317486
250	0xbd92d4dd	-0.07169507
251	0xbe03f74d	-0.12887307
252	0xbd3c1e7f	-0.04592752
253	0x3c486b47	0.012232608
254	0x3d606341	0.054782156
255	0xbd8ebd4b	-0.069696985

model.3.bias f4 [16]
0	0xbe1cd626	-0.15316066
1	0xbd907fd8	-0.07055634
2	0xbdf4b190	-0.1194793
3	0xbb763575	-0.0037568484
4	0xbe5bd311	-0.21467234
5	0xbe09b094	-0.13446265
6	0xbf045680	-0.5169449
7	0xbeac9fa3	-0.33715543
8	0xbf0e9799	-0.5570007
9	0xbbb68594	-0.005570123
10	0xbe9e4284	-0.30910122
11	0xbd63f7a6	-0.055656098
12	0x3b9c108f	0.004762716
13	0x3c1c90f0	0.00955604
14	0xbe131f07	-0.14367305
15	0xbe6960f7	-0.22790895

model.6.weight f4 [120, 16, 5, 5]
0	0xbd50467d	-0.050848473
1	0xbc40e53e	-0.011773406
2	0x3bf27c61	0.007400081
3	0xbd1aa628	-0.037756115
4	0x3d1367e3	0.035987746
5	0xbbae0a24	-0.0053112675
6	0x3bf38a81	0.0074322824
7	0x3bb83145	0.0056211078
8	0xbb701a87	-0.0036636905
9	0x3d178277	0.036989655
10	0xbc9f35fe	-0.019434925
11	0xbd14bb8f	-0.036311682
12	0xbcb1fa33	-0.02172575
13	0xbd52fa4d	-0.051508237
14	0x3d28e43c	0.041233286
15	0xbc0b1873	-0.008489716
16	0xbd09bfe1	-0.033630256
17	0xbb8fe10e	-0.0043908423
18	0x3b95cdde	0.0045716604
19	0xbd35b27b	-0.044359665
20	0x3c8606e2	0.016360704
21	0xbbe78d00	-0.007066369
22	0x3c5d2f95	0.013500114
23	0x3d1646e6	0.036688708
24	0x3c980f0a	0.018561859
25	0xbd2cf09e	-0.042221658
26	0xbd60d69f	-0.05489218
27	0xbd1175cf	-0.03551274
28	0x3c9e6fbb	0.019340387
29	0x3d7f4556	0.062321983
30	0xbd5e180b	-0.054222148
31	0xbd3503d3	-0.0441931
32	0xbd495155	-0.04914983
33	0xbe41ff1b	-0.18944971
34	0x3d090e06	0.03346064
35	0x3cb05e59	0.021529363
36	0xbcbe3858	-0.023220226
37	0xbd16d9b4	-0.03682871
38	0xbdfefb5f	-0.12450289
39	0xbcc40fa7	-0.023933245
40	0xbd838845	-0.06422476
41	0x3c698a11	0.014254109
42	0xbd6c5733	-0.057700347
43	0xbd876801	-0.06611634
44	0xbb384989	-0.0028120002
45	0xbd7693c8	-0.06019953
46	0xbd1d6607	-0.03842738
47	0xbd2656e6	-0.040610217
48	0xbd855d1a	-0.06511898
49	0x3ba9f731	0.005186938
50	0x3d00cd6a	0.031445898
51	0x3d5080f6	0.050904237
52	0xbc0b37d3	-0.008497196
53	0xbc023b51	-0.007948712
54	0xbc80bdbe	-0.015715476
55	0x3ca2fd05	0.01989604
56	0x3d0a29e4	0.033731356
57	0xbd2a0f66	-0.04151859
58	0x3b49ab64	0.0030772323
59	0x3d2d249e	0.04227125
60	0x3ca79586	0.02045704
61	0x3ca8f6cd	0.020625496
62	0xbc771d84	-0.015082721
63	0xbd97ffca	-0.07421835
64	0xbbd199d0	-0.0063965097
65	0xbc80c594	-0.015719213
66	0xbd2bceb4	-0.041945174
67	0x3bc34cc0	0.005960077
68	0xbd273c08	-0.040828735
69	0x3d1bb730	0.038016498
70	0x3ce261ff	0.027634619
71	0xbd632438	-0.055454463
72	0x3ca3082a	0.019901354
73	0xbd375f18	-0.044768423
74	0x3cb51a6a	0.022107322
75	0xbc7866ad	-0.015161199
76	0x3d044142	0.032288797
77	0xba40a6c3	-0.0007349068
78	0xbcce7e2e	-0.025206652
79	0x3c87b312	0.01656488
80	0x3cbc97a6	0.02302153
81	0xbd4af4e0	-0.049549937
82	0x3c1f2fa7	0.009715951
83	0xbcdc0336	-0.026857
84	0xbd586cf9	-0.0528383
85	0xbb370f9f	-0.0027932895
86	0xbd91f3c1	-0.071265705
87	0xbc4f3842	-0.01264769
88	0xbd58f50a	-0.052968062
89	0xbd262a38	-0.040567607
90	0x3cd6f475	0.026239613
91	0x3c2f0e85	0.010684614
92	0xba8cff46	-0.001075723
93	0xbd3f3188	-0.046678096
94	0xbd551a28	-0.052026898
95	0xbbde7be2	-0.0067896703
96	0xbd6da445	-0.058017988
97	0x3c346534	0.011010457
98	0xbcbe9dc4	-0.023268588
99	0xbcb25bf0	-0.021772355
100	0x3b53aed8	0.003230026
101	0x3de3ada2	0.11117102
102	0x3df791eb	0.120883785
103	0x3c7ade0a	0.015311727
104	0xbd8c8077	-0.0686044
105	0x3e01618c	0.12634867
106	0x3dd94d89	0.10610492
107	0x3d682222	0.056673177
108	0x3c462079	0.012092703
109	0xbdb808a0	-0.0898602
110	0x3ca03c61	0.01956004
111	0x3c1d5490	0.009602681
112	0xbd0f9652	-0.035055466
113	0x3dbcbb97	0.092154674
114	0x3d362156	0.044465385
115	0x3cf8ad75	0.030356148
116	0x3d700c39	0.058605406
117	0x3d86d57e	0.06583689
118	0xbb280fd7	-0.0025644207
119	0xbd97c177	-0.07409947
120	0xbd9f58a5	-0.077805795
121	0x3d80e156	0.062929794
122	0x3dbf3bf2	0.093376055
123	0x3c023891	0.007948057
124	0xbdcacb7b	-0.09902092
125	0x3cc96b0f	0.024587182
126	0x3d1c526f	0.038164552
127	0x3c67b90c	0.01414324
128	0xbc2c307a	-0.010509605
129	0xbc6acbcc	-0.0143308155
130	0xbd04847b	-0.032352906
131	0xbcf44869	-0.029819684
132	0xbd8ac053	-0.06774964
133	0xbdd0fce1	-0.10204483
134	0xbdbe3e6d	-0.092892505
135	0x3d318b6b	0.04334585
136	0xbde6a4e6	-0.11261921
137	0xbaa1c081	-0.0012340696
138	0xbd19cb45	-0.03754737
139	0x3d12cc09	0.035839114
140	0xbd7eedaf	-0.06223839
141	0xbe7e72ae	-0.24848434
142	0xbd8e1c13	-0.069389485
143	0xbca119b2	-0.019665573
144	0xbd365553	-0.044514965
145	0xbc42fa48	-0.011900492
146	0x3d675ff8	0.056488007
147	0x3d500969	0.050790224
148	0xbcc7ed1a	-0.024405051
149	0x3ab4ae74	0.0013784901
150	0x3cb2e0d8	0.02183573
151	0xbe2861e7	-0.16443597
152	0xbdf70bc2	-0.120627895
153	0x3b7ded26	0.0038746088
154	0x3ba6224a	0.0050700055
155	0xbd824b10	-0.06361973
156	0xbdc63fc9	-0.09680135
157	0xbdc13d40	-0.09435511
158	0x3d45815b	0.048219066
159	0x3d0355b6	0.032064162
160	0x3caf45d4	0.021395601
161	0xbd19cdad	-0.037549663
162	0xbd6ab7a0	-0.057304025
163	0xbced6bdb	-0.028982094
164	0xbd0040d1	-0.031311814
165	0xbd12cc1d	-0.03583919
166	0x3d0196fa	0.031638123
167	0xbe107bdb	-0.14109747
168	0x3d8c347b	0.06845947
169	0x3c3b55cd	0.011434031
170	0xbb0c51ab	-0.0021410983
171	0xbdaa1635	-0.08305017
172	0x3c18a0c2	0.009315671
173	0x3d12daeb	0.035853308
174	0x3ced3aca	0.028958697
175	0x3dd3ef05	0.10348324
176	0x3bea9e49	0.0071599823
177	0x3dddcb58	0.108298
178	0xbd1e77a8	-0.03868833
179	0xbe0bfed0	-0.13671422
180	0x3da57e48	0.08080727
181	0x3da97bb2	0.08275546
182	0x3ddb9cdc	0.10723278
183	0xbd52f6c3	-0.05150486
184	0xbd15afb3	-0.036544513
185	0x3e0cbf6c	0.13744897
186	0x3dcde727	0.100538544
187	0x3dc9b30a	0.09848602
188	0x3c0a9cd7	0.008460245
189	0xbe1702a0	-0.14747095
190	0xbd34806e	-0.044067793
191	0x3c82991e	0.015942153
192	0xbd5386c5	-0.051642198
193	0x3d1bfa17	0.0380803
194	0x3cf3ec01	0.029775621
195	0xbd31bfc9	-0.04339579
196	0x3ddec4b9	0.108773656
197	0x3cdf2c22	0.027242724
198	0x3c4d6b23	0.01253775
199	0xbd5a53b1	-0.05330247
200	0x3dc348c9	0.09535367
201	0xbd00efe1	-0.031478766
202	0x3dc93a87	0.09825616
203	0x3cedd129	0.0290304
204	0x3da9fc86	0.08300118
205	0xbc445d1f	-0.011985092
206	0xbd6ab5c1	-0.05730224
207	0x3ca6554d	0.020304346
208	0xbd7b4a46	-0.06135013
209	0xbd21983e	-0.03945183
210	0x3cde4cfc	0.027136318
211	0x3d9c331f	0.07626938
212	0x3dd4d4ba	0.10392137
213	0xbcb0e2b5	-0.021592477
214	0x3d6b7dec	0.057493135
215	0xbd05adbc	-0.03263639
216	0xbd9a3e8e	-0.075314626
217	0x3ce3137c	0.027719252
218	0xbd24a1e2	-0.040193446
219	0xbb9f0e7c	-0.0048540216
220	0x3ceab8f7	0.028652651
221	0x3c83c2d9	0.016084122
222	0xbda004dc	-0.07813427
223	0xbc24366c	-0.010022741
224	0xba56afec	-0.00081896666
225	0x39d9d0d9	0.0004154507
226	0x3caca63d	0.021075362
227	0xbcb2dceb	-0.021833858
228	0xbcff90d9	-0.031196998
229	0xbd1e2f86	-0.03861954
230	0xbc215615	-0.009847184
231	0xbd5376f7	-0.051627126
232	0xbd1ad4e4	-0.037800685
233	0xbd5f7bd7	-0.054561462
234	0x3a23ca41	0.0006248095
235	0xbce75494	-0.028238572
236	0x3b116709	0.0022186658
237	0xbb29b5b0	-0.0025895648
238	0xbd953261	-0.07285
239	0xbb8f3035	-0.0043697604
240	0xbd381948	-0.044945985
241	0xbce7a4d8	-0.028276846
242	0xbce493ad	-0.027902449
243	0x3c1de446	0.009636944
244	0x3cffadda	0.031210829
245	0xbcba489e	-0.022739705
246	0xbc627386	-0.013821488
247	0xbd2ea250	-0.042635262
248	0xbc8e8c15	-0.01740078
249	0xbc3a29c9	-0.011362501
250	0x3d2ff605	0.042959232
251	0x3d3971af	0.045274433
252	0xbc09742f	-0.008389517
253	0xbd026440	-0.031833887
254	0x3d244668	0.040106207
255	0x3c0c6147	0.008568115

model.6.bias f4 [120]
0	0x3aa4db48	0.0012577558
1	0x3bb375ca	0.005476688
2	0xbe4fd0c7	-0.20294486
3	0x3db8600e	0.09002696
4	0xbe0915e7	-0.13387261
5	0x3d2727f0	0.04080957
6	0xbca71599	-0.02039604
7	0xbd572b5e	-0.052531593
8	0xbdae2c85	-0.08504585
9	0xbe348a9c	-0.17631
10	0xbda01c49	-0.07817895
11	0x3d4d4cf3	0.050122213
12	0xbbd421cc	-0.0064737555
13	0x3e0ea72b	0.13930957
14	0x3e2d5586	0.16927156
15	0x3e2478d1	0.16061713
16	0x3c864a62	0.01639289
17	0xbd4a3cfb	-0.04937456
18	0x3e6b21ab	0.22962062
19	0xbd6918cf	-0.056908425
20	0x3da4f0a6	0.080537125
21	0xbda7faff	-0.082021706
22	0xbdb4e4d1	-0.08832706
23	0xbdb8a1a6	-0.09015207
24	0x3d236526	0.039891385
25	0xbd5176af	-0.051138576
26	0xbdf90904	-0.12159923
27	0xbdb55287	-0.088536315
28	0xbb4aef74	-0.003096548
29	0xbc939bbf	-0.018018601
30	0x3d90e2b5	0.07074491
31	0x3e3afc4d	0.18260308
32	0xbe084acf	-0.13309787
33	0xbcca4ac4	-0.024693854
34	0xbcd356ac	-0.025798164
35	0xbbf065e9	-0.0073363674
36	0x3e219213	0.15778379
37	0xbd8a1296	-0.06741826
38	0x3c941314	0.018075503
39	0x3c55ec16	0.013056776
40	0xbdba94e9	-0.091104336
41	0xbe91c6e3	-0.2847205
42	0x3c657520	0.014004976
43	0xbd401670	-0.046896398
44	0x3d0e18b4	0.034691527
45	0xbe228be3	-0.15873675
46	0x3a0c8d81	0.0005361662
47	0xbd6c2ded	-0.057660986
48	0x3cfe088f	0.03100994
49	0x3ea07d3a	0.3134554
50	0xbe4cb6c9	-0.19991602
51	0x3ea02dab	0.31284842
52	0x3dbb5eab	0.09148916
53	0x3e426eec	0.18987626
54	0x3d1c73ae	0.03819626
55	0x3c88b4c2	0.016687755
56	0xbe3b7b0a	-0.18308654
57	0x3ceaf58b	0.028681537
58	0x3c2584ff	0.0101025095
59	0x3d8a6560	0.06757617
60	0xbe71b532	-0.23604277
61	0xbda5c640	-0.08094454
62	0xbe1516d0	-0.14559484
63	0xbe416de6	-0.18889579
64	0xbd36375b	-0.044486385
65	0x3dd90bfd	0.1059799
66	0xbcc3c7c1	-0.023898961
67	0x3c2eddb3	0.010672974
68	0xbd8db9a0	-0.06920171
69	0xbde5168a	-0.111859396
70	0x3d7464c5	0.059666414
71	0xbd979cf8	-0.07402986
72	0xbc6a6ca1	-0.014308126
73	0xbdcd1742	-0.10014202
74	0xbe2e264c	-0.17006797
75	0xbe4eab3d	-0.2018251
76	0xbd8ec242	-0.069706455
77	0x3d850acf	0.06496202
78	0xbde78027	-0.1130374
79	0xbbd7738a	-0.0065750526
80	0xbd8df766	-0.06931953
81	0xbe4ba7cb	-0.19888227
82	0x3d8970fc	0.06711003
83	0xbd900f45	-0.070341624
84	0x3d0974de	0.03355872
85	0xbca46a42	-0.020070199
86	0xbd0f471b	-0.03497992
87	0x3dc430f6	0.09579651
88	0x3e447013	0.19183378
89	0xbde0ac14	-0.10970321
90	0xbe3efca8	-0.18651068
91	0xbda669c7	-0.08125644
92	0x3df039de	0.11729787
93	0xbdfa1d24	-0.122125894
94	0xbe758f6a	-0.2398049
95	0x3cf31ad8	0.029675886
96	0xbd4fe8e4	-0.05075921
97	0x3e3c7cb1	0.18406941
98	0xbd99fc65	-0.075188436
99	0xbe011766	-0.12606582
100	0x3d85ed23	0.06539371
101	0xbc76d70e	-0.0150659215
102	0x3dd6444c	0.10462245
103	0x3e44aacd	0.1920578
104	0x3e248fa7	0.16070424
105	0xbd827a25	-0.063709535
106	0x3e11e86c	0.14248818
107	0x3e87b8a6	0.26508063
108	0xbd807da1	-0.06273962
109	0x3ccf28e0	0.025288045
110	0x3d4887b0	0.048957527
111	0x3ce82fbe	0.028343078
112	0x3e16ea67	0.14737855
113	0x3e848d89	0.25889233
114	0xbda0c178	-0.07849401
115	0xbd301f07	-0.04299834
116	0xbe02a6f1	-0.12758996
117	0xbcc70c83	-0.024297958
118	0x3e86f8ed	0.2636179
119	0x3e10ffa7	0.14160024

model.8.weight f4 [84, 120]
0	0x3d4daf63	0.05021609
1	0x3e15208d	0.14563198
2	0x3d9b8f49	0.07595689
3	0x3db9977a	0.09062095
4	0x3e073acf	0.13206027
5	0x3d277cfc	0.04089068
6	0xbda00f1f	-0.07815384
7	0xbde607b8	-0.11231941
8	0xbc23f40e	-0.010006918
9	0x3e3797b6	0.17928967
10	0xbd1d9dda	-0.038480617
11	0x3d273c8f	0.040829238
12	0xbd1e1c00	-0.03860092
13	0xbe47a9b3	-0.19498329
14	0x3e013af8	0.12620151
15	0xbc78581e	-0.0151577275
16	0x3e282740	0.16421223
17	0x3d07d9f9	0.03316686
18	0x3d3f37e6	0.04668417
19	0xbdb7cf0d	-0.08975039
20	0xbd4935c6	-0.049123548
21	0x3e0c5eb0	0.13707995
22	0x3d4f58fd	0.050621975
23	0x3d922234	0.0713543
24	0xbce30493	-0.027712142
25	0x3d06a963	0.032876384
26	0x3c83bd3b	0.016081443
27	0x3de060a7	0.10955935
28	0xbdc59b60	-0.09648776
29	0xbc5aba99	-0.013350152
30	0x3d7f12a1	0.062273625
31	0x3daebd4d	0.085322
32	0xbcc58560	-0.02411145
33	0xbdcbbb60	-0.09947848
34	0xbcf0e485	-0.029405842
35	0xbd867705	-0.0656567
36	0x3e1050c2	0.14093307
37	0x3dbbf2da	0.0917718
38	0x3d055c6a	0.032558836
39	0xbd327fb6	-0.043578826
40	0xbe139d36	-0.1441544
41	0x3d9f6d44	0.07784513
42	0x3c78a0af	0.015175029
43	0x3d561be7	0.052272703
44	0x3c667191	0.014065162
45	0x3d7ebf43	0.06219412
46	0x3e07e9db	0.13272803
47	0xbbe8bea8	-0.007102806
48	0xbc43eab6	-0.011957815
49	0x3dd67bca	0.1047283
50	0xbbfd57d1	-0.007731416
51	0x3cb90ca2	0.022589032
52	0x3dd56cac	0.10421118
53	0x3dc3ad70	0.09554565
54	0xbe448f14	-0.19195205
55	0xbcc2b554	-0.023768105
56	0x3dc9b894	0.098496586
57	0xbe6295be	-0.22127435
58	0xbe0ba242	-0.13636115
59	0xbc95fee6	-0.018310022
60	0x3bb3a3fd	0.0054821954
61	0xbd9da5bb	-0.07697626
62	0x3d6ca464	0.057773963
63	0xbddeb744	-0.10874799
64	0xbe360a55	-0.17777379
65	0x3d7d417c	0.06183003
66	0x3d3ab986	0.045587085
67	0xbcb9a0a9	-0.022659617
68	0x3e0499c5	0.12949283
69	0xbddbab49	-0.107260294
70	0x3dd846c2	0.10560371
71	0xbde724f7	-0.11286347
72	0x3de2843a	0.110603765
73	0x3dded72b	0.10880884
74	0xbd138c99	-0.036022756
75	0x3e131256	0.14362463
76	0x3e7e5a2a	0.24839082
77	0xbe554260	-0.20826101
78	0x3cee23fd	0.029069895
79	0x3db4a66a	0.088208035
80	0xbe2edebe	-0.17077157
81	0x3e682c92	0.22673252
82	0x3dd1c414	0.10242477
83	0x3d6ceab9	0.057841036
84	0x3e31e5fd	0.1737289
85	0x3df64573	0.12024965
86	0xbd925ab2	-0.07146205
87	0x3d741c0b	0.059597056
88	0xbe164cdf	-0.14677761
89	0xbba34256	-0.004982273
90	0x3d8d12de	0.06888364
91	0x3e070bd8	0.13188112
92	0x3c9c544c	0.019083165
93	0x3d5685d3	0.05237372
94	0x3e1a26a6	0.15053806
95	0x3de8b21d	0.113620974
96	0x3df13b1a	0.11778851
97	0x3e47a022	0.1949468
98	0x3cd7e902	0.026356224
99	0xbd158c54	-0.03651078
100	0x3e14c742	0.14529136
101	0xbc957ef4	-0.018249013
102	0x3d395cb8	0.04525444
103	0x3e3b12ff	0.18268965
104	0x3c52756e	0.01284538
105	0xbe327631	-0.17427899
106	0xbb10c435	-0.0022089605
107	0xbe1ec203	-0.15503697
108	0xbda4674e	-0.08027516
109	0x3e6a4950	0.22879529
110	0x3d965d25	0.07341985
111	0x3d196154	0.037446335
112	0xbe287d8d	-0.16454144
113	0x3d71a3e7	0.0589942
114	0x3dd15ae8	0.10222417
115	0xbb8262cb	-0.003979062
116	0x3db5ff2c	0.08886561
117	0x3cac96e5	0.021068046
118	0x3e1fa097	0.15588604
119	0x3dc95098	0.09829825
120	0x3db30d1d	0.087427355
121	0xbd38c16f	-0.045106348
122	0xbda73e12	-0.08166136
123	0x3d8cb6b5	0.06870786
124	0x3b90926b	0.0044119856
125	0xbce58ffd	-0.02802276
126	0x3c10d70e	0.0088403355
127	0xbd91c4f8	-0.07117647
128	0x3c54cb9d	0.012987998
129	0x3cc4680a	0.023975391
130	0xbdd8fbc6	-0.10594897
131	0xbd19c50b	-0.03754143
132	0xbe2d1600	-0.16902924
133	0xbda0f920	-0.07860017
134	0x3d9c258b	0.07624348
135	0x3d02077c	0.03174542
136	0xbdc4565d	-0.09586785
137	0xbd844c4f	-0.06459867
138	0xbe0167ac	-0.12637204
139	0xbd842113	-0.06451621
140	0x3d3a41fe	0.04547309
141	0xbd0b81f6	-0.034059487
142	0xbca8167a	-0.02051853
143	0xbc5a073d	-0.01330739
144	0x3df9d682	0.12199117
145	0xbd4d9132	-0.050187297
146	0xbbf86f29	-0.0075816107
147	0x3e1a6381	0.1507702
148	0x3dfd05ec	0.12354645
149	0x3d3a5dbc	0.04549955
150	0xbd91e8be	-0.0712447
151	0x3e2c252d	0.16811056
152	0xbdb761f8	-0.08954233
153	0xbc6f20eb	-0.014595251
154	0x3cf3bdf3	0.02975366
155	0xbd1fe73e	-0.03903889
156	0xbd8dd8c6	-0.06926112
157	0xbd884c49	-0.06655175
158	0xbd2c14b5	-0.042011935
159	0xbd45e6da	-0.04831586
160	0x3d5e6b25	0.0543014
161	0x3ddb2212	0.10699858
162	0x3d20db74	0.039271787
163	0xbd87c4e5	-0.066293515
164	0xbb080814	-0.0020756768
165	0x3cca7f93	0.024719035
166	0xbc2aa030	-0.010414168
167	0xbc0a06a2	-0.008424433
168	0xbd009aef	-0.031397756
169	0xbccea9dc	-0.02522748
170	0x3ce1405f	0.027496515
171	0x3cc43a23	0.023953503
172	0xbdd07588	-0.10178667
173	0x3d9a8473	0.07544794
174	0xbd6441cf	-0.055726822
175	0xbd94fbe2	-0.07274605
176	0x3cb59d6b	0.02216979
177	0x3e123511	0.14278056
178	0x3e0a61c2	0.13513854
179	0xbd89135c	-0.06693146
180	0xbc8ebfb1	-0.01742539
181	0xbdb81403	-0.08988192
182	0xbbff046a	-0.0077825086
183	0xbd7fdfe3	-0.062469374
184	0xbdf6ecfa	-0.120569184
185	0xbdae135d	-0.08499787
186	0xbc8215c4	-0.01587952
187	0xbd1e1125	-0.03859057
188	0xbdde2572	-0.10846986
189	0x3ca5a0b2	0.020218227
190	0x3d324b84	0.04352905
191	0xbc2815ee	-0.010259135
192	0x3dd9a966	0.10628013
193	0xbdafdc7d	-0.08586977
194	0xbd335139	-0.04377863
195	0x3ccd8929	0.025089817
196	0xbd5a47bd	-0.05329107
197	0xbc892df0	-0.016745538
198	0xbe04869c	-0.12941974
199	0xbdfbc288	-0.12292963
200	0x3e0fc1d6	0.14038786
201	0xbd6f6392	-0.058444567
202	0x3dc1010c	0.09424028
203	0x3d792713	0.06082828
204	0x3caa8be8	0.020818666
205	0xbc9c12bb	-0.0190519
206	0x3ca3d1bd	0.019997472
207	0xbc79f5aa	-0.015256325
208	0x3dc7cd71	0.09755982
209	0xbd189781	-0.03725386
210	0x3e1521a9	0.14563622
211	0x3d7e3ce4	0.06206979
212	0xbc9a260a	-0.018816967
213	0xbd8915d7	-0.06693619
214	0xbdfb69a8	-0.12276012
215	0xbe0b7d06	-0.13621911
216	0xbd5a3e1a	-0.05328188
217	0x3ccd806f	0.025085656
218	0xbdfbf8eb	-0.12303337
219	0xbd9e2ce3	-0.07723405
220	0x3cc57149	0.02410187
221	0xbd85eeec	-0.06539711
222	0xbe07183b	-0.13192837
223	0x3d59227c	0.053011402
224	0xbcd8622b	-0.026413998
225	0xbccdbc06	-0.02511407
226	0xbdb92506	-0.09040265
227	0x3c3e7a5b	0.0116258515
228	0xbcb5ae4c	-0.022177838
229	0x3d2ad01e	0.041702382
230	0x3cd7149d	0.026254946
231	0xbd706c5b	-0.058697086
232	0xbc8b955a	-0.01703899
233	0x3cf8bb62	0.030362789
234	0xbcc49081	-0.023994686
235	0x3d8e5b6f	0.06951033
236	0x3d82a03d	0.06378219
237	0xbdfe904d	-0.12429867
238	0x3aa9d946	0.0012958429
239	0xbccaefa9	-0.024772482
240	0xbdaad029	-0.08340485
241	0xbd8f53ec	-0.06998429
242	0xbcbd7d4e	-0.023131039
243	0x3e3cafee	0.18426487
244	0xbcb9ed71	-0.022696229
245	0xbdf3653c	-0.11884543
246	0xbd825a38	-0.06364864
247	0x3bfbdb6f	0.0076860706
248	0x3cfea5cc	0.031084917
249	0xbcd2b4df	-0.025721012
250	0xbd85ac8f	-0.065270536
251	0xbdaae7ee	-0.08345018
252	0xbdda5e6d	-0.106625415
253	0xbcd0e6e7	-0.025500728
254	0xbd99e37e	-0.07514094
255	0xbd23dbea	-0.04000465

model.8.bias f4 [84]
0	0x3daff2e9	0.08591253
1	0x3d6481b6	0.055787764
2	0x3d818704	0.0632458
3	0xbde0cf68	-0.109770596
4	0x3e0e41f9	0.13892354
5	0xbd4370b9	-0.047714923
6	0xbcbb10b1	-0.022835108
7	0xba69c442	-0.00089174893
8	0xbd097ac0	-0.03356433
9	0x3e1a93a9	0.1509539
10	0xbe1ebe74	-0.1550234
11	0xbd2de4bd	-0.04245447
12	0xbc621340	-0.013798535
13	0xbe16a0cf	-0.14709781
14	0x3c5dfe94	0.013549466
15	0x3e2e4980	0.17020226
16	0x3be3252e	0.0069319224
17	0xbdcf45f0	-0.101207614
18	0xbdb22f5b	-0.087004386
19	0xbe022bd2	-0.12712029
20	0x3e0402ef	0.12891744
21	0xbd9d108b	-0.07669171
22	0x3e1ac968	0.15115893
23	0x3d227738	0.039664477
24	0xbe12d57f	-0.14339255
25	0x3d0a5629	0.033773575
26	0x3cc823c9	0.024431126
27	0xbda5c69c	-0.08094522
28	0xbaa329e1	-0.0012448394
29	0xbd1e84e5	-0.038700957
30	0x3cf248a0	0.029575646
31	0x3deb2360	0.114813566
32	0x3e0a4984	0.13504606
33	0x3d8eef78	0.06979269
34	0x3e4eefcd	0.20208664
35	0xbe2201fc	-0.1582107
36	0x3db7f5eb	0.08982452
37	0xbe009b83	-0.12559323
38	0xbc3c18d7	-0.011480532
39	0xbe32663a	-0.17421809
40	0x3d7463d5	0.05966552
41	0x3d611572	0.054952092
42	0x3e1f6963	0.15567546
43	0x3e6b6894	0.22989112
44	0x3e36e568	0.17860949
45	0x3d531b1a	0.051539518
46	0x3e0af679	0.13570584
47	0x3cee4cdf	0.02908939
48	0xbd5d8bf2	-0.05408854
49	0xbe062164	-0.13098675
50	0x3c024764	0.007951591
51	0xbd45414d	-0.04815798
52	0xbe83c6f5	-0.2573773
53	0x3d4ab5ec	0.0494899
54	0xbdbed54f	-0.09318029
55	0xb9b7698d	-0.0003498312
56	0xbbd45f5c	-0.0064810943
57	0x3ddf3063	0.10897901
58	0x3e425fec	0.18981904
59	0x3e14e7bf	0.14541529
60	0xbd0d9ddf	-0.034574386
61	0xbcd28872	-0.025699828
62	0xbcc6f9d1	-0.024289044
63	0x3cea61cc	0.028611086
64	0xbddc3df0	-0.10754001
65	0xbda1caae	-0.07899986
66	0xbe2b97f6	-0.16757187
67	0x3cd9f65d	0.026606733
68	0x3c5cb9f6	0.013472071
69	0xbdaf9aee	-0.08574472
70	0x3de7239d	0.112860896
71	0xbe434fa1	-0.19073345
72	0xbd8836b6	-0.0665106
73	0x3d1032b3	0.0352046
74	0xbd1978d1	-0.037468735
75	0x3ddb038b	0.10694035
76	0xbdcfb451	-0.101418145
77	0x3cd7c5e1	0.026339473
78	0xbe8addb1	-0.27122262
79	0x3e43698d	0.19083233
80	0xbdf821a5	-0.12115792
81	0x3dc8a40c	0.097969145
82	0xbc95f322	-0.018304411
83	0xbc8e2792	-0.017352853

model.9.weight f4 [10, 84]
0	0xbe0effdf	-0.13964795
1	0xbe938080	-0.28808975
2	0xbdd011fe	-0.10159682
3	0x3cac876d	0.02106067
4	0xbe8cc9fc	-0.27497852
5	0xbe563b2f	-0.20921014
6	0xbe28c03a	-0.16479579
7	0x3ebadb17	0.36495277
8	0x3ea7ed26	0.32798117
9	0xbe2ec971	-0.17069031
10	0x3e1a7b35	0.15086062
11	0x3dfe6e02	0.12423326
12	0x3e31b2b1	0.17353322
13	0x3ee318c6	0.44354838
14	0x3e98b3e8	0.29824758
15	0xbeb66b0f	-0.35628554
16	0xbb6ad064	-0.0035829777
17	0x3f12acbe	0.57294834
18	0xbd803355	-0.06259791
19	0xbe5ca221	-0.21546222
20	0xbe6119eb	-0.21982543
21	0x3d48e3f3	0.049045514
22	0x3dea0b19	0.11427898
23	0xbed5d8bf	-0.41766927
24	0x3e26093d	0.16214462
25	0xbc547ba5	-0.012968932
26	0x3e08a467	0.13343965
27	0x3cbe9948	0.02326645
28	0x3e9b12ac	0.30287683
29	0xbe7f2593	-0.24916677
30	0x3db31421	0.08744074
31	0x3e496306	0.1966668
32	0xbda8673f	-0.08222818
33	0x3f0d5b52	0.5521747
34	0x3e2dc01b	0.16967814
35	0x3ead7b60	0.3388319
36	0x3ef51950	0.47870874
37	0x3ea3c17f	0.31983563
38	0xbe8bd44b	-0.27310404
39	0xbea74d91	-0.32676366
40	0x3eb94bcc	0.3619064
41	0xbe890760	-0.2676344
42	0xbc1a46b6	-0.009416273
43	0x3e1e79b6	0.15476117
44	0x3e72fe32	0.2372978
45	0xbe3feef9	-0.18743505
46	0xbc618be9	-0.013766267
47	0x3eb3dc2e	0.3512892
48	0x3ecd794c	0.40131605
49	0xbd866732	-0.06562652
50	0xbc309adb	-0.010779108
51	0xbd9eb8dc	-0.07750103
52	0xbe7e9f27	-0.248654
53	0xbd00f6b4	-0.031485274
54	0xbe490e68	-0.19634402
55	0xbe855c21	-0.2604685
56	0x3ebdecbe	0.37094682
57	0xbd465f2a	-0.0484306
58	0x3e851765	0.2599441
59	0xbde1b0c4	-0.110200435
60	0xbc8e7fe9	-0.017394977
61	0x3ecaedcf	0.3963456
62	0x3e5a65f8	0.2132796
63	0x3eb18ef8	0.3467939
64	0xbbddc182	-0.0067674527
65	0x3e7830fc	0.24237436
66	0x3f1412f8	0.57841444
67	0x3e2b0780	0.1670208
68	0x3e266689	0.16250052
69	0x3e6e0485	0.23243912
70	0x3cceb57b	0.025233021
71	0x3e1e42ef	0.1545522
72	0x3e1969f8	0.1498183
73	0xbe4fabaf	-0.20280336
74	0xbdf0bbbc	-0.117545575
75	0xbd4d4055	-0.05011018
76	0x3cd2077c	0.025638334
77	0xbe58c48a	-0.21168724
78	0xbd88dcbb	-0.06682726
79	0xbe09e8be	-0.1346769
80	0xbd9a7d2a	-0.075434044
81	0xbf4fe107	-0.8120274
82	0x3ecfb966	0.40571135
83	0xbe6e0a96	-0.23246226
84	0x3ead8f95	0.33898607
85	0xbe595543	-0.21223931
86	0xbddcbda6	-0.1077836
87	0xbe8fe2c9	-0.2810271
88	0x3d917c6f	0.07103812
89	0x3ed6246e	0.4182467
90	0x3e60a45f	0.21937703
91	0xbe3ab5a6	-0.18233356
92	0xbe9a4ed6	-0.30138272
93	0x3c05665e	0.008142082
94	0xbce14b51	-0.027501734
95	0x3d5a29ba	0.05326245
96	0xbe85182e	-0.2599501
97	0x3e999420	0.29995823
98	0x3f0677d1	0.52526575
99	0xbda42d24	-0.080164224
100	0xbecc1b89	-0.39864758
101	0xbe8df7dc	-0.27728164
102	0xbe3e5fd8	-0.18591249
103	0x3f01f17c	0.507591
104	0x3e72d0a3	0.23712401
105	0xbdd29030	-0.10281408
106	0xbd60cbde	-0.054881923
107	0xbe4b7dec	-0.19872254
108	0x3edf3e9e	0.4360246
109	0xbee313cb	-0.44351038
110	0xbf304a30	-0.688632
111	0x3da4565d	0.08024285
112	0xbee8a0a3	-0.45435056
113	0xbd873dcd	-0.066035844
114	0x3dd311fb	0.10306164
115	0xbe930e26	-0.28721732
116	0xbe7fb995	-0.24973138
117	0xbe90e255	-0.28297678
118	0xbe1dce56	-0.15410742
119	0x3e1d2ede	0.1534991
120	0x3c8f59a7	0.017498804
121	0xbcfebd3f	-0.031096099
122	0x3ba29f30	0.0049628243
123	0x3eaf4705	0.3423387
124	0xbd62e0c3	-0.05539013
125	0x3e92de2b	0.28685126
126	0xbdbdc08d	-0.09265242
127	0xbe7b06f7	-0.24514376
128	0xbe82cbd0	-0.25546122
129	0x3e17684b	0.14785878
130	0xbe684c5b	-0.22685377
131	0xbe9e71e2	-0.3094626
132	0x3d066170	0.032807767
133	0xbe991caa	-0.2990468
134	0x3d518828	0.05115524
135	0xbd83c5af	-0.064341895
136	0x3f10a651	0.5650378
137	0x3e5abfb6	0.21362194
138	0xbea822d0	-0.3283906
139	0xbd88cd1c	-0.066797465
140	0x3e60d13b	0.21954815
141	0x3ec90d56	0.39267987
142	0x3c62dadb	0.0138461245
143	0x3e02e502	0.12782672
144	0x3ea20902	0.31647497
145	0x3c37c5c9	0.011216589
146	0xbef238ad	-0.47308865
147	0xbdcbf1cc	-0.099582285
148	0x3ec7f9d1	0.39057782
149	0x3ddd8234	0.1081585
150	0x3df9e670	0.122021556
151	0xbea2f851	-0.31830075
152	0x3e7999f2	0.24375132
153	0x3e4f0cef	0.20219778
154	0x3d36a6a6	0.044592522
155	0x3ee1860a	0.44047576
156	0x3ea5cc19	0.32382277
157	0xbe85d9b3	-0.26142654
158	0xbbc79c92	-0.0060916627
159	0x3e79a81e	0.24380538
160	0xbda073b3	-0.07834568
161	0xbc9d4d56	-0.019201916
162	0x3c20b993	0.009809869
163	0x3e9f7077	0.3114049
164	0xbe358455	-0.17726262
165	0x3e140b4d	0.14457436
166	0xbebafb8e	-0.36520046
167	0x3e330c91	0.17485262
168	0x3e00da41	0.12583257
169	0xbde95f93	-0.113951825
170	0xbd3258d8	-0.04354176
171	0xbe6bb21d	-0.23017164
172	0xbdbb2670	-0.09138191
173	0x3dc10275	0.09424297
174	0xbe7fa21c	-0.24964184
175	0xbe0d7bb0	-0.13816714
176	0xbf25669f	-0.6460971
177	0xbf0eb649	-0.55746895
178	0x3d90fe7a	0.070797876
179	0xbe7302b1	-0.23731495
180	0xbda930d9	-0.0826127
181	0x3e86b17a	0.2630728
182	0x3dac7273	0.08420267
183	0xbc79559c	-0.015218165
184	0xbe0b1cbf	-0.13585185
185	0x3ebed08a	0.37268478
186	0xbf02f9de	-0.5116252
187	0x3e0f01c1	0.13965513
188	0x3ebc5f68	0.3679154
189	0xbe91b7e5	-0.28460613
190	0xbdc73e2f	-0.097286575
191	0x3e528755	0.20559438
192	0x3e4adeca	0.1981155
193	0xbe521896	-0.20517191
194	0x3e4b496f	0.19852231
195	0x3e127894	0.1430381
196	0x3ea7a359	0.32741812
197	0xbd479c28	-0.048732907
198	0xbe97c0c0	-0.29639244
199	0xbdc12e9a	-0.09432717
200	0x3e538374	0.20655614
201	0xbd4daec4	-0.050215498
202	0x3db918fe	0.0903797
203	0xbe548ae8	-0.20756114
204	0x3e99a412	0.30007988
205	0xbdedcd2e	-0.116114005
206	0x3d19abf2	0.037517495
207	0x3e6b73c4	0.2299338
208	0xbe790f70	-0.24322295
209	0xbe23400a	-0.15942398
210	0x3d29cf50	0.041457474
211	0x3ddbce76	0.10732739
212	0x3f116635	0.5679658
213	0x3e9ac55d	0.302287
214	0xbe6b91e5	-0.23004873
215	0xbbc72b72	-0.006078177
216	0x3caafd3e	0.020872708
217	0xbd8c0058	-0.06836003
218	0xb60531f0	-1.9847612e-06
219	0xbe3c0983	-0.18363003
220	0xbe41100c	-0.18853778
221	0x3d8d41f6	0.06897347
222	0x3dac3b47	0.08409744
223	0x3e814ff6	0.25256318
224	0xbeaa0527	-0.33207056
225	0xbd90f002	-0.07077028
226	0x3d8c7ef6	0.068601534
227	0x3e9b48f5	0.303291
228	0xbd48dc66	-0.049038313
229	0x3e291202	0.16510776
230	0xbd3184a7	-0.043339398
231	0x3b2b2632	0.0026115295
232	0x3e3f6104	0.18689352
233	0x3e3dab49	0.18522371
234	0x3db364ca	0.08759458
235	0xbd873f63	-0.06603887
236	0x3df6fc1a	0.12059803
237	0x3e64b810	0.2233584
238	0xbe075956	-0.13217673
239	0xbf1cca57	-0.61246246
240	0x3e14e2af	0.14539598
241	0x3e56f26a	0.20990911
242	0x3ea3fb39	0.32027605
243	0x3e269417	0.1626743
244	0x3e8efc21	0.27926734
245	0x3e014dd0	0.1262734
246	0xbe52579c	-0.20541233
247	0x3e126349	0.14295687
248	0x3e8b8113	0.27246913
249	0xbe958f9d	-0.2921113
250	0xbe9e150a	-0.30875427
251	0xbd010c2d	-0.031505752
252	0x3ebeefde	0.3729238
253	0x3e474c9f	0.19462822
254	0xbea64ed0	-0.32482004
255	0x3e08b673	0.13350849

model.9.bias f4 [10]
0	0xbe918035	-0.28418127
1	0xbeacbabc	-0.33736217
2	0x3dc341c1	0.09534026
3	0x3df157bc	0.11784312
4	0xbe6af47e	-0.22944829
5	0x3e71efaf	0.23626588
6	0xbf0be504	-0.54646325
7	0xbe20e87d	-0.15713687
8	0x3f3e3f9d	0.74315816
9	0x3e224cd9	0.15849628
